…
I0419 17:04:58.889785 51153 net.cpp:322] The NetState phase (0) differed from the phase (1) specified by a rule in layer mnist
I0419 17:04:58.889816 51153 net.cpp:322] The NetState phase (0) differed from the phase (1) specified by a rule in layer accuracy
I0419 17:04:58.889953 51153 net.cpp:49] Initializing net from parameters: 
name: "LeNet"
state {
  phase: TRAIN
}
layer {
  name: "mnist"
  type: "Data"
  top: "data"
  top: "label"
  include {
    phase: TRAIN
  }
  transform_param {
    scale: 0.00390625
  }
  data_param {
    source: "/home/ykwon/deep/mnist/caffe_mnist/mnist_train_lmdb"
    batch_size: 64
    backend: LMDB
  }
}
layer {
  name: "conv1"
  type: "Convolution"
  bottom: "data"
  top: "conv1"
  param {
    lr_mult: 1
  }
  param {
    lr_mult: 2
  }
  convolution_param {
    num_output: 20
    kernel_size: 5
    stride: 1
    weight_filler {
      type: "xavier"
    }
    bias_filler {
      type: "constant"
    }
  }
}
layer {
  name: "pool1"
  type: "Pooling"
  bottom: "conv1"
  top: "pool1"
  pooling_param {
    pool: MAX
    kernel_size: 2
    stride: 2
  }
}
layer {
  name: "conv2"
  type: "Convolution"
  bottom: "pool1"
  top: "conv2"
  param {
    lr_mult: 1
  }
  param {
    lr_mult: 2
  }
  convolution_param {
    num_output: 50
    kernel_size: 5
    stride: 1
    weight_filler {
      type: "xavier"
    }
    bias_filler {
      type: "constant"
    }
  }
}
layer {
  name: "pool2"
  type: "Pooling"
  bottom: "conv2"
  top: "pool2"
  pooling_param {
    pool: MAX
    kernel_size: 2
    stride: 2
  }
}
layer {
  name: "ip1"
  type: "InnerProduct"
  bottom: "pool2"
  top: "ip1"
  param {
    lr_mult: 1
  }
  param {
    lr_mult: 2
  }
  inner_product_param {
    num_output: 500
    weight_filler {
      type: "xavier"
    }
    bias_filler {
      type: "constant"
    }
  }
}
layer {
  name: "relu1"
  type: "ReLU"
  bottom: "ip1"
  top: "ip1"
}
layer {
  name: "ip2"
  type: "InnerProduct"
  bottom: "ip1"
  top: "ip2"
  param {
    lr_mult: 1
  }
  param {
    lr_mult: 2
  }
  inner_product_param {
    num_output: 10
    weight_filler {
      type: "xavier"
    }
    bias_filler {
      type: "constant"
    }
  }
}
layer {
  name: "loss"
  type: "SoftmaxWithLoss"
  bottom: "ip2"
  bottom: "label"
  top: "loss"
}
I0419 17:04:58.890043 51153 layer_factory.hpp:77] Creating layer mnist
I0419 17:04:58.890517 51153 net.cpp:106] Creating Layer mnist
I0419 17:04:58.890530 51153 net.cpp:411] mnist -> data
I0419 17:04:58.890564 51153 net.cpp:411] mnist -> label
I0419 17:04:58.892590 51158 db_lmdb.cpp:38] Opened lmdb /home/ykwon/deep/mnist/caffe_mnist/mnist_train_lmdb
I0419 17:04:58.901834 51153 data_layer.cpp:41] output data size: 64,1,28,28
I0419 17:04:58.902866 51153 net.cpp:150] Setting up mnist
I0419 17:04:58.902911 51153 net.cpp:157] Top shape: 64 1 28 28 (50176)
I0419 17:04:58.902920 51153 net.cpp:157] Top shape: 64 (64)
I0419 17:04:58.902926 51153 net.cpp:165] Memory required for data: 200960
I0419 17:04:58.902947 51153 layer_factory.hpp:77] Creating layer conv1
I0419 17:04:58.902964 51153 net.cpp:106] Creating Layer conv1
I0419 17:04:58.902971 51153 net.cpp:454] conv1 <- data
I0419 17:04:58.902982 51153 net.cpp:411] conv1 -> conv1
I0419 17:04:59.205780 51153 net.cpp:150] Setting up conv1
I0419 17:04:59.205848 51153 net.cpp:157] Top shape: 64 20 24 24 (737280)
I0419 17:04:59.205853 51153 net.cpp:165] Memory required for data: 3150080
I0419 17:04:59.205883 51153 layer_factory.hpp:77] Creating layer pool1
I0419 17:04:59.205932 51153 net.cpp:106] Creating Layer pool1
I0419 17:04:59.205938 51153 net.cpp:454] pool1 <- conv1
I0419 17:04:59.205945 51153 net.cpp:411] pool1 -> pool1
I0419 17:04:59.206006 51153 net.cpp:150] Setting up pool1
I0419 17:04:59.206015 51153 net.cpp:157] Top shape: 64 20 12 12 (184320)
I0419 17:04:59.206018 51153 net.cpp:165] Memory required for data: 3887360
I0419 17:04:59.206022 51153 layer_factory.hpp:77] Creating layer conv2
I0419 17:04:59.206035 51153 net.cpp:106] Creating Layer conv2
I0419 17:04:59.206042 51153 net.cpp:454] conv2 <- pool1
I0419 17:04:59.206059 51153 net.cpp:411] conv2 -> conv2
I0419 17:04:59.207132 51153 net.cpp:150] Setting up conv2
I0419 17:04:59.207159 51153 net.cpp:157] Top shape: 64 50 8 8 (204800)
I0419 17:04:59.207162 51153 net.cpp:165] Memory required for data: 4706560
I0419 17:04:59.207171 51153 layer_factory.hpp:77] Creating layer pool2
I0419 17:04:59.207180 51153 net.cpp:106] Creating Layer pool2
I0419 17:04:59.207185 51153 net.cpp:454] pool2 <- conv2
I0419 17:04:59.207202 51153 net.cpp:411] pool2 -> pool2
I0419 17:04:59.207264 51153 net.cpp:150] Setting up pool2
I0419 17:04:59.207273 51153 net.cpp:157] Top shape: 64 50 4 4 (51200)
I0419 17:04:59.207276 51153 net.cpp:165] Memory required for data: 4911360
I0419 17:04:59.207291 51153 layer_factory.hpp:77] Creating layer ip1
I0419 17:04:59.207299 51153 net.cpp:106] Creating Layer ip1
I0419 17:04:59.207303 51153 net.cpp:454] ip1 <- pool2
I0419 17:04:59.207309 51153 net.cpp:411] ip1 -> ip1
I0419 17:04:59.210561 51153 net.cpp:150] Setting up ip1
I0419 17:04:59.210574 51153 net.cpp:157] Top shape: 64 500 (32000)
I0419 17:04:59.210589 51153 net.cpp:165] Memory required for data: 5039360
I0419 17:04:59.210598 51153 layer_factory.hpp:77] Creating layer relu1
I0419 17:04:59.210605 51153 net.cpp:106] Creating Layer relu1
I0419 17:04:59.210609 51153 net.cpp:454] relu1 <- ip1
I0419 17:04:59.210616 51153 net.cpp:397] relu1 -> ip1 (in-place)
I0419 17:04:59.210830 51153 net.cpp:150] Setting up relu1
I0419 17:04:59.210841 51153 net.cpp:157] Top shape: 64 500 (32000)
I0419 17:04:59.210855 51153 net.cpp:165] Memory required for data: 5167360
I0419 17:04:59.210860 51153 layer_factory.hpp:77] Creating layer ip2
I0419 17:04:59.210868 51153 net.cpp:106] Creating Layer ip2
I0419 17:04:59.210871 51153 net.cpp:454] ip2 <- ip1
I0419 17:04:59.210877 51153 net.cpp:411] ip2 -> ip2
I0419 17:04:59.211544 51153 net.cpp:150] Setting up ip2
I0419 17:04:59.211555 51153 net.cpp:157] Top shape: 64 10 (640)
I0419 17:04:59.211570 51153 net.cpp:165] Memory required for data: 5169920
I0419 17:04:59.211577 51153 layer_factory.hpp:77] Creating layer loss
I0419 17:04:59.211587 51153 net.cpp:106] Creating Layer loss
I0419 17:04:59.211591 51153 net.cpp:454] loss <- ip2
I0419 17:04:59.211596 51153 net.cpp:454] loss <- label
I0419 17:04:59.211601 51153 net.cpp:411] loss -> loss
I0419 17:04:59.211612 51153 layer_factory.hpp:77] Creating layer loss
…
I0419 17:04:59.212491 51153 solver.cpp:181] Creating test net (#0) specified by net file: /home/ykwon/deep/mnist/caffe_mnist/lenet_train_test.prototxt
I0419 17:04:59.212540 51153 net.cpp:322] The NetState phase (1) differed from the phase (0) specified by a rule in layer mnist
I0419 17:04:59.212659 51153 net.cpp:49] Initializing net from parameters: 
name: "LeNet"
state {
  phase: TEST
}
layer {
  name: "mnist"
  type: "Data"
  top: "data"
  top: "label"
  include {
    phase: TEST
  }
  transform_param {
    scale: 0.00390625
  }
  data_param {
    source: "/home/ykwon/deep/mnist/caffe_mnist/mnist_test_lmdb"
    batch_size: 100
    backend: LMDB
  }
}
layer {
  name: "conv1"
  type: "Convolution"
  bottom: "data"
  top: "conv1"
  param {
    lr_mult: 1
  }
  param {
    lr_mult: 2
  }
  convolution_param {
    num_output: 20
    kernel_size: 5
    stride: 1
    weight_filler {
      type: "xavier"
    }
    bias_filler {
      type: "constant"
    }
  }
}
layer {
  name: "pool1"
  type: "Pooling"
  bottom: "conv1"
  top: "pool1"
  pooling_param {
    pool: MAX
    kernel_size: 2
    stride: 2
  }
}
layer {
  name: "conv2"
  type: "Convolution"
  bottom: "pool1"
  top: "conv2"
  param {
    lr_mult: 1
  }
  param {
    lr_mult: 2
  }
  convolution_param {
    num_output: 50
    kernel_size: 5
    stride: 1
    weight_filler {
      type: "xavier"
    }
    bias_filler {
      type: "constant"
    }
  }
}
layer {
  name: "pool2"
  type: "Pooling"
  bottom: "conv2"
  top: "pool2"
  pooling_param {
    pool: MAX
    kernel_size: 2
    stride: 2
  }
}
layer {
  name: "ip1"
  type: "InnerProduct"
  bottom: "pool2"
  top: "ip1"
  param {
    lr_mult: 1
  }
  param {
    lr_mult: 2
  }
  inner_product_param {
    num_output: 500
    weight_filler {
      type: "xavier"
    }
    bias_filler {
      type: "constant"
    }
  }
}
layer {
  name: "relu1"
  type: "ReLU"
  bottom: "ip1"
  top: "ip1"
}
layer {
  name: "ip2"
  type: "InnerProduct"
  bottom: "ip1"
  top: "ip2"
  param {
    lr_mult: 1
  }
  param {
    lr_mult: 2
  }
  inner_product_param {
    num_output: 10
    weight_filler {
      type: "xavier"
    }
    bias_filler {
      type: "constant"
    }
  }
}
layer {
  name: "accuracy"
  type: "Accuracy"
  bottom: "ip2"
  bottom: "label"
  top: "accuracy"
  include {
    phase: TEST
  }
}
layer {
  name: "loss"
  type: "SoftmaxWithLoss"
  bottom: "ip2"
  bottom: "label"
  top: "loss"
}
I0419 17:04:59.212755 51153 layer_factory.hpp:77] Creating layer mnist
I0419 17:04:59.222322 51153 net.cpp:106] Creating Layer mnist
I0419 17:04:59.222353 51153 net.cpp:411] mnist -> data
I0419 17:04:59.222363 51153 net.cpp:411] mnist -> label
I0419 17:04:59.224194 51160 db_lmdb.cpp:38] Opened lmdb /home/ykwon/deep/mnist/caffe_mnist/mnist_test_lmdb
I0419 17:04:59.224397 51153 data_layer.cpp:41] output data size: 100,1,28,28
I0419 17:04:59.225692 51153 net.cpp:150] Setting up mnist
I0419 17:04:59.225721 51153 net.cpp:157] Top shape: 100 1 28 28 (78400)
I0419 17:04:59.225726 51153 net.cpp:157] Top shape: 100 (100)
I0419 17:04:59.225730 51153 net.cpp:165] Memory required for data: 314000
I0419 17:04:59.225735 51153 layer_factory.hpp:77] Creating layer label_mnist_1_split
I0419 17:04:59.225744 51153 net.cpp:106] Creating Layer label_mnist_1_split
I0419 17:04:59.225747 51153 net.cpp:454] label_mnist_1_split <- label
I0419 17:04:59.225755 51153 net.cpp:411] label_mnist_1_split -> label_mnist_1_split_0
I0419 17:04:59.225764 51153 net.cpp:411] label_mnist_1_split -> label_mnist_1_split_1
I0419 17:04:59.225849 51153 net.cpp:150] Setting up label_mnist_1_split
I0419 17:04:59.225859 51153 net.cpp:157] Top shape: 100 (100)
I0419 17:04:59.225864 51153 net.cpp:157] Top shape: 100 (100)
I0419 17:04:59.225867 51153 net.cpp:165] Memory required for data: 314800
I0419 17:04:59.225870 51153 layer_factory.hpp:77] Creating layer conv1
I0419 17:04:59.225883 51153 net.cpp:106] Creating Layer conv1
I0419 17:04:59.225886 51153 net.cpp:454] conv1 <- data
I0419 17:04:59.225894 51153 net.cpp:411] conv1 -> conv1
I0419 17:04:59.227449 51153 net.cpp:150] Setting up conv1
I0419 17:04:59.227466 51153 net.cpp:157] Top shape: 100 20 24 24 (1152000)
I0419 17:04:59.227494 51153 net.cpp:165] Memory required for data: 4922800
I0419 17:04:59.227505 51153 layer_factory.hpp:77] Creating layer pool1
I0419 17:04:59.227514 51153 net.cpp:106] Creating Layer pool1
I0419 17:04:59.227519 51153 net.cpp:454] pool1 <- conv1
I0419 17:04:59.227526 51153 net.cpp:411] pool1 -> pool1
I0419 17:04:59.227594 51153 net.cpp:150] Setting up pool1
I0419 17:04:59.227608 51153 net.cpp:157] Top shape: 100 20 12 12 (288000)
I0419 17:04:59.227617 51153 net.cpp:165] Memory required for data: 6074800
I0419 17:04:59.227620 51153 layer_factory.hpp:77] Creating layer conv2
I0419 17:04:59.227637 51153 net.cpp:106] Creating Layer conv2
I0419 17:04:59.227646 51153 net.cpp:454] conv2 <- pool1
I0419 17:04:59.227653 51153 net.cpp:411] conv2 -> conv2
I0419 17:04:59.229140 51153 net.cpp:150] Setting up conv2
I0419 17:04:59.229167 51153 net.cpp:157] Top shape: 100 50 8 8 (320000)
I0419 17:04:59.229172 51153 net.cpp:165] Memory required for data: 7354800
I0419 17:04:59.229182 51153 layer_factory.hpp:77] Creating layer pool2
I0419 17:04:59.229189 51153 net.cpp:106] Creating Layer pool2
I0419 17:04:59.229193 51153 net.cpp:454] pool2 <- conv2
I0419 17:04:59.229199 51153 net.cpp:411] pool2 -> pool2
I0419 17:04:59.229254 51153 net.cpp:150] Setting up pool2
I0419 17:04:59.229264 51153 net.cpp:157] Top shape: 100 50 4 4 (80000)
I0419 17:04:59.229269 51153 net.cpp:165] Memory required for data: 7674800
I0419 17:04:59.229275 51153 layer_factory.hpp:77] Creating layer ip1
I0419 17:04:59.229285 51153 net.cpp:106] Creating Layer ip1
I0419 17:04:59.229295 51153 net.cpp:454] ip1 <- pool2
I0419 17:04:59.229302 51153 net.cpp:411] ip1 -> ip1
I0419 17:04:59.233336 51153 net.cpp:150] Setting up ip1
I0419 17:04:59.233352 51153 net.cpp:157] Top shape: 100 500 (50000)
I0419 17:04:59.233368 51153 net.cpp:165] Memory required for data: 7874800
I0419 17:04:59.233377 51153 layer_factory.hpp:77] Creating layer relu1
I0419 17:04:59.233386 51153 net.cpp:106] Creating Layer relu1
I0419 17:04:59.233393 51153 net.cpp:454] relu1 <- ip1
I0419 17:04:59.233413 51153 net.cpp:397] relu1 -> ip1 (in-place)
I0419 17:04:59.233613 51153 net.cpp:150] Setting up relu1
I0419 17:04:59.233626 51153 net.cpp:157] Top shape: 100 500 (50000)
I0419 17:04:59.233630 51153 net.cpp:165] Memory required for data: 8074800
I0419 17:04:59.233650 51153 layer_factory.hpp:77] Creating layer ip2
I0419 17:04:59.233659 51153 net.cpp:106] Creating Layer ip2
I0419 17:04:59.233664 51153 net.cpp:454] ip2 <- ip1
I0419 17:04:59.233672 51153 net.cpp:411] ip2 -> ip2
I0419 17:04:59.233840 51153 net.cpp:150] Setting up ip2
I0419 17:04:59.233850 51153 net.cpp:157] Top shape: 100 10 (1000)
I0419 17:04:59.233865 51153 net.cpp:165] Memory required for data: 8078800
I0419 17:04:59.233871 51153 layer_factory.hpp:77] Creating layer ip2_ip2_0_split
I0419 17:04:59.233877 51153 net.cpp:106] Creating Layer ip2_ip2_0_split
I0419 17:04:59.233881 51153 net.cpp:454] ip2_ip2_0_split <- ip2
I0419 17:04:59.233899 51153 net.cpp:411] ip2_ip2_0_split -> ip2_ip2_0_split_0
I0419 17:04:59.233906 51153 net.cpp:411] ip2_ip2_0_split -> ip2_ip2_0_split_1
I0419 17:04:59.233942 51153 net.cpp:150] Setting up ip2_ip2_0_split
I0419 17:04:59.233948 51153 net.cpp:157] Top shape: 100 10 (1000)
I0419 17:04:59.233953 51153 net.cpp:157] Top shape: 100 10 (1000)
I0419 17:04:59.233957 51153 net.cpp:165] Memory required for data: 8086800
I0419 17:04:59.233960 51153 layer_factory.hpp:77] Creating layer accuracy
I0419 17:04:59.233968 51153 net.cpp:106] Creating Layer accuracy
I0419 17:04:59.233973 51153 net.cpp:454] accuracy <- ip2_ip2_0_split_0
I0419 17:04:59.233976 51153 net.cpp:454] accuracy <- label_mnist_1_split_0
I0419 17:04:59.233981 51153 net.cpp:411] accuracy -> accuracy
…
